suggesting/model.pt (torch, 457856 bytes, 4 tensors)

0.weight f4 [256, 384]
00000000: d72f a73b 5a8a 333d d2be b43b 59a0 0abe
00000010: d5c7 c9bd 2b50 953d 7cd7 0c3e f2a8 ffbc
00000020: 8c2b ac3d 91a9 80bc b568 a8bc a378 8a3d
00000030: 8b3b 64bd 589b dd3d c021 4d3c 9463 523e
00000040: 3969 9b3d 175a 6f3d a4ab 1f3e 9bba 78bc
00000050: 3cdc c4bd b790 ab3d 1364 d2bb fc38 9e3d
00000060: 1037 383d 132b 0a3e 084f b6bb cad6 a23b
00000070: 5058 02be a12b 0abe a149 fcbc bbde b03d
00000080: 6efa 3d3d 2792 8cbc 74a1 cc3d deba bb3c
00000090: d6ef 06be 82ca f43d 8bee cdbc dc10 2f3e
000000a0: b714 0ebe d0bb 0c3e 6cc2 aabd a8e8 8c3d
000000b0: 8ebc b2bd 339d 02be 1148 a9bd cefe babd
000000c0: bdf1 a4bc 1969 533d 9942 61bd bb16 adbd
000000d0: 7b14 a73d 9b92 043c 5735 ddbc 1e63 9abd
000000e0: 8d94 1d3e f1ac 823d 3bac 9abc e07b f33c
000000f0: bd1f c8bd 5a8a 43bd 91af a33c 3fe4 433c
00000100: 680b 2c3d 7c27 69bd a8b5 77bd 0df4 7f3c
00000110: 71f3 97bd 48dc e73b 8396 c73d b396 473e
00000120: 71b8 4bbd 8a4f c5bc 9003 d5bb f9e7 97bd
00000130: 2993 87bc cac8 103c c788 a4bd 6233 bdbc
00000140: ebec 9c3c b614 d6bd df0d 793b 6f79 15be
00000150: 3589 c2bc 75a3 753c f77d 44be 038e ad3a
00000160: c0f9 2bbe 38d5 cbbd e26a 02be 474e 943c
00000170: cf9d debd b51c 303e 9ed3 0d3d a9fd 963c
00000180: fe09 67bc 9aec 01be 1ef3 023e e273 b83d
00000190: d316 433c c0bf 103c 0ce8 783d 379a 6e3d
000001a0: 97ff 0fbd b159 bdbd 1b2c 353e 8530 963d
000001b0: 3dc3 97bb 6d97 fbbd 0901 523d bc3b 803d
000001c0: 0125 d43c 5531 df3d 20c2 bfbd 0cb7 68bd
000001d0: 360c 363e cc21 913d 0ac0 ab3d a514 d3bb
000001e0: 9729 8a3d 7751 71bd 2e30 d9bb f051 11bc
000001f0: fb86 10be 135c 8dbd 276c 01be 4472 863b
00000200: 5cd6 023e 5be2 173d 6220 13b9 3ec1 f7bd
00000210: 93eb bb3d 7b2c b8bd e184 c7bd 1454 683d
00000220: 4f17 18bd 3911 edbd f5a7 d23d 8917 efbd
00000230: 22f1 973d 816d f3bd 9472 a1bd 25de 89bd
00000240: 8df9 16be e588 f03d d716 1a3e 6df3 613d
00000250: 1d73 173d eb3d fc3d 6953 59bd 9ea9 553d
00000260: 6a8b 09be 508c aa3c 2827 92bb 6dd8 9cbd
00000270: 91a8 763d 906e 6e3d 3cbd 893b 41ea cc3d
00000280: 933e 70bd 92a6 cfbd 1f72 353e 60e6 7ebd
00000290: 676a 68bd b955 183b 5ffa 483d 6369 b2bd
000002a0: 538f e83c 2adf 2b3e 588f 93bd 02d2 0b3d
000002b0: 30ed 59bc e5e8 303e 3523 c5bd 9e46 253d
000002c0: e26d a13d 6202 2bbd 2a24 c1bb 512a 713d
000002d0: e160 28be 03e6 b6bd cb38 993d 745f c3bd
000002e0: bdcb 1e3d 8606 893d ac80 fc3c 3c77 b6bd
000002f0: aa05 fa3b c6df fc3d 8232 3ebd 6a4e bdbd
00000300: 603c 823c 0194 47be 1766 093d 37ad 8fbd
00000310: 8c50 ee3d a983 46bd 5235 93bd 0d4c 26be
00000320: 27f3 8c3d 0af5 67bb 36c7 093d 40bc 0bbe
00000330: 251c 29bd 965e c1bd 32c2 bc3c 14e6 5ebd
00000340: f472 4fbd 3436 cd3c b3c7 6abd 92db 1d3c
00000350: a886 d6bd 56b7 f2bd 2645 97bd fc85 e9bd
00000360: 9de9 b3bd 93a8 fa3d 1896 13be ced0 9c3c
00000370: 8f6e 0abe 12a0 7b3d 1215 283c 1f51 f23a
00000380: 0432 293e 1dd3 b53d 8ae6 633b b6ce 24be
00000390: e856 143e a69b 823d d068 d4bd 94e3 a33d
000003a0: 2c45 d43d 2666 b43d d97a 22bd ecaa 82bd
000003b0: 9a50 32bc b3c5 54bd d42e c3bd eb7e 7fbb
000003c0: ac11 e639 2353 853c 56f8 c33d 667c 923d
000003d0: 6a59 aebd 146f 3a3c 2248 353d 6823 d1bc
000003e0: a36f 81bd e689 1cbe e1c7 eb3d 706a 373e
000003f0: 76af d7bc a3f2 013e dd4b 0f3e 9553 16be
0.0051021385 0.043833114 0.0055159116 -0.1353773 -0.09852568 0.072906815 0.13754076 -0.03120849
0.084067434 -0.015705856 -0.02055774 0.06761291 -0.055720847 0.10820645 0.012520254 0.20545799
0.07588429 0.058435526 0.1559282 -0.015181209 -0.09612319 0.083772115 -0.006420621 0.07725713
0.044974387 0.13492994 -0.0055636205 0.0049694525 -0.12729001 -0.13493206 -0.030796828 0.086362325
0.046381406 -0.017159535 0.09991732 0.022916254 -0.13177428 0.11952688 -0.02513816 0.17096275
-0.1387509 0.1374352 -0.08337864 0.06880313 -0.0872737 -0.12755279 -0.08265699 -0.091306314
-0.020134801 0.0516139 -0.054995153 -0.08451601 0.08158203 0.008091594 -0.027002973 -0.07538436
0.15388699 0.06380642 -0.018880954 0.029722154 -0.097716786 -0.047739364 0.019981178 0.011956274
0.042003065 -0.05692242 -0.060475975 0.015622151 -0.0741948 0.00707582 0.09745505 0.19491081
-0.049736444 -0.024085779 -0.006500669 -0.07417292 -0.016549664 0.008836934 -0.08033901 -0.02309579
0.01915594 -0.10453169 0.0038002653 -0.14597104 -0.023747066 0.0149925845 -0.19188677 0.0013241175
-0.16794491 -0.099527776 -0.12736085 0.018103732 -0.10869943 0.17198451 0.034625642 0.018431501
-0.014101503 -0.12687913 0.12788054 0.09006478 0.011907297 0.008834779 0.060768172 0.05825254
-0.03515586 -0.09245623 0.17692606 0.07333473 -0.0046314285 -0.122847416 0.05127052 0.062613934
0.025896551 0.10898081 -0.09363198 -0.056815192 0.17778096 0.07086524 0.08386238 -0.00644167
0.06746214 -0.05891558 -0.006628058 -0.008869633 -0.14113991 -0.069023274 -0.12638913 0.004102977
0.12777084 0.037081104 -0.00014031076 -0.12097405 0.091757916 -0.08992859 -0.097421415 0.05672081
-0.037131604 -0.115755506 0.102859415 -0.11674411 0.07419039 -0.118861206 -0.07883182 -0.06731824
-0.14743634 0.117448606 0.15047775 0.05516379 0.036975015 0.123164974 -0.05305806 0.052163713
-0.13432088 0.02081886 -0.004460234 -0.076584674 0.06021935 0.05821091 0.0042034667 0.10005618
-0.058653425 -0.10139193 0.17719315 -0.06223142 -0.0567421 0.0023244454 0.049066897 -0.08711507
0.028388655 0.16784349 -0.07205075 0.034135826 -0.013301179 0.17276342 -0.09625856 0.04035055
0.078822866 -0.04175032 -0.0058942037 0.058878247 -0.16443206 -0.0893059 0.074815355 -0.095396906
0.03876852 0.06690697 0.030823074 -0.08909461 0.0076300697 0.12347369 -0.046434887 -0.09243472
0.01589793 -0.19490053 0.033544626 -0.0701546 0.11636457 -0.048465405 -0.071879044 -0.16239949
0.06882315 -0.0035393857 0.033637248 -0.1364603 -0.041286606 -0.09441869 0.023041818 -0.05441864
-0.050646737 0.02505026 -0.057319354 0.009634869 -0.104749024 -0.11851375 -0.07386236 -0.114025086
-0.087847926 0.12239184 -0.14412725 0.019142535 -0.13518737 0.06143195 0.01025893 0.0018487311
0.16522986 0.08878157 0.0034774863 -0.16094479 0.14486277 0.06377344 -0.10371554 0.080023915
0.10364756 0.08808546 -0.039667938 -0.06380257 -0.010883475 -0.051946353 -0.09530416 -0.003898556
0.00043882185 0.016274994 0.09568851 0.07152633 -0.08513148 0.011379022 0.044258244 -0.025529578
-0.06320121 -0.15286979 0.11512733 0.17911696 -0.026328783 0.12690215 0.13993783 -0.14680322

0.bias f4 [256]
00000000: b4c1 683d c5bc 7f3d 158a 3f3d 1430 713d
00000010: d94f 4d3d 0559 2a3d f674 873c 563a 673d
00000020: d2a8 143e 4b7a be3d 7b0e 86bc d8d4 ca3c
00000030: dc6d bf3d fb5c b43d fc03 523d e3d2 553c
00000040: 8810 9f3d a36a 8d3d 90c0 de3c f9b8 6a3d
00000050: 88cd 6e3d 917e 643d c304 333d 83a9 853c
00000060: c746 e93c 8131 543d fabf 8f3c b4a2 7c3d
00000070: d53c 003e 6475 3b3d 75ac f63c b0df 6d3d
00000080: 9093 da3d 6db9 053d f799 f33b 4df4 483d
00000090: ea3c b73d c204 433c 3217 1a3d e326 e53d
000000a0: 13e4 bd3c 5558 623c fdfe 513d ed95 393d
000000b0: 3a7c fa3d 8e26 ef3d 219b a63d 9501 943d
000000c0: 374e 843d 70ab c13c 9ce3 2dbd c619 823b
000000d0: c5ea 973d 585e 543d c64e 47bd b130 643d
000000e0: 1172 a53d 6908 bf3c 0f0b 0e3e ac71 b03d
000000f0: 3923 a53d bf1a a83c ff1c 53bd 188f 8c3d
00000100: a20c d33c b61c 353c f8a4 8d3c a44b 333d
00000110: 7688 5b3d d289 9c3d 2aa7 223d 0a36 b53d
00000120: 94a0 c93c b44e 733c d2dc c43b ac98 bd3d
00000130: d665 ed3d 111b 863d b977 f93b b288 c13d
00000140: 720b f63d 746d 633d 0f6e b33c 888b da3d
00000150: e689 4a3d 256c 693d 40ba 333d 8bdb 813d
00000160: 253c 2cbb 84eb d93c 64be e03d 27a6 d33d
00000170: 0981 573d 8393 113e 0c94 b93d cb6a ba3d
00000180: da8f 133d b8e3 b93c 89d6 b03d 5b38 9a3d
00000190: 5f79 493d 8d45 ac3d 1f37 be3c 5c9b c23d
000001a0: fc84 483d 1b30 793d 97b7 bc3d 6d37 50ba
000001b0: eccc 4f3d 4ecb 123d b8a7 e13c b552 403d
000001c0: b5b3 193c f548 213e 530c cb3c fc63 53bd
000001d0: 18a0 293c 48b4 593d 3bcd d13d dc3c b13d
000001e0: 7600 9b3d fc6e 923d 6f7f ee3b e464 9b3d
000001f0: 265a 4e3d a33c b53d aa87 8c3c f9ac d83d
00000200: 3350 c43d 8e49 b73d 99dd 213d 3d69 283d
00000210: 90c3 aa3d 1314 7c3d 2fa3 cf3c 87bb 033e
00000220: a74d 3a3d 3b0f 3f3d 375b 163e 538f ac3d
00000230: d541 253d 4a50 ba3c c8c8 78bc 0c2a bf3c
00000240: 792d 383d 59a8 843d 7a16 cb3b ba9e b33d
00000250: 24ee 863c ab19 5dbd 4054 c93d 6faf ba3d
00000260: 3b12 9a3d e9dc f03d 6649 24bc ebbb b83d
00000270: 69c5 9e3d a5ef f93c 1e80 a03d 3aca ed3d
00000280: 263a af3d 66c8 d13c 2853 583d 4e16 993d
00000290: 3ef9 ce3c 0a11 783c a0af 943c c970 233d
000002a0: 5b4f 593c aafb bc3d 1f28 6d3d 2118 653d
000002b0: 38b2 2b3d 30f3 873d 2de6 4d3d 60b1 343d
000002c0: 94f8 913d 6c47 d13d 563b 8f3d 8e65 7b3c
000002d0: a1d7 fa3d b3c5 633c c564 dc3b 09cb 113d
000002e0: fe10 443d 2d45 003c a28a 983d 0f46 a23d
000002f0: 9a96 983d 695a 6e3d 7f61 173d b128 af3d
00000300: 89a3 423d e45a 623d 6acb 2b3e 5869 903c
00000310: 29cd 0c3d 2626 5d3d ba1e c93c a24e b63d
00000320: 11cd 323d e5bf c13d 5e9a ba3d 5580 bd3d
00000330: 6034 b83d 8460 55bd b4f0 023e 3d45 cb3d
00000340: 1dc5 353d d886 513d a15b 033e b6ce f03c
00000350: 44d2 e23c 4e93 fa3b dfa2 893d f4c6 1c3d
00000360: 74f8 b33d 02ff 793d c2d9 8f3d 5990 be3a
00000370: b35a 363d a5e3 d93c a6e9 183e 0bb5 023e
00000380: 87a4 293d 9eb0 813c 53f1 fe3b b716 a63c
00000390: dcc6 513d 65de 723d 12f7 983d fc5e 563c
000003a0: 424b 243d 8608 063d e158 403d f903 4a3d
000003b0: 7ce8 6a3d 97e3 533d a1e5 973d 90cf 8e3d
000003c0: 87fe 3b3d 5c1c 9c3c 1cd9 f33c 1a19 423d
000003d0: 7573 d73d ed47 523d eb18 683d b809 1d3d
000003e0: 2baa 8b3d bfec cd3d e117 823d a9bc 593d
000003f0: afb2 eb3d cd1b c83c 4009 963d 985a 9a3d
0.056825355 0.062435884 0.046762545 0.05888374 0.050124977 0.041588802 0.016535264 0.056452118
0.14517525 0.09300669 -0.016364327 0.024759695 0.09347126 0.08806797 0.05127333 0.013050768
0.07766825 0.06905105 0.02719143 0.05730531 0.05830148 0.055784766 0.043705713 0.016316181
0.028476132 0.051805023 0.017547596 0.061678603 0.12523206 0.04576625 0.03011153 0.058074653
0.106726766 0.03264754 0.0074341255 0.04906111 0.08947165 0.01190299 0.037619777 0.11189058
0.023180043 0.013815005 0.051268566 0.045308996 0.122307256 0.116772756 0.08135057 0.07226864
0.06460231 0.023641318 -0.042453393 0.0039703576 0.074178256 0.051847786 -0.04865911 0.0557105
0.08078397 0.02331944 0.13871406 0.08615431 0.08063359 0.020520566 -0.051541325 0.068632305
0.02576286 0.0110542085 0.017290577 0.04377331 0.053596936 0.07643475 0.0397102 0.08848198
0.024612702 0.014850307 0.006007769 0.092576355 0.11591689 0.06548131 0.007613149 0.09449901
0.12013902 0.055524305 0.021903066 0.10671145 0.049447916 0.0569879 0.043878794 0.063407026
-0.0026280966 0.02660156 0.10973814 0.103344254 0.052613292 0.14216428 0.09061441 0.091024004
0.03602586 0.022691593 0.08634669 0.0753028 0.049188014 0.08411703 0.023219643 0.09502289
0.04895495 0.060836893 0.092147045 -0.00079428294 0.050732538 0.035838418 0.027545795 0.046953876
0.009381224 0.15750487 0.02478615 -0.051609024 0.010353111 0.053150445 0.10244223 0.08654186
0.07568447 0.07150075 0.007278375 0.07587603 0.05037894 0.08849456 0.017154533 0.10579867
0.09585609 0.08949576 0.039517973 0.041115988 0.08338082 0.06154258 0.025346367 0.12864505
0.04548421 0.046645384 0.14683233 0.084257744 0.040345985 0.022743363 -0.015184589 0.02333548
0.04496524 0.06477422 0.006197748 0.08770509 0.016470976 -0.053979557 0.098305225 0.091154926
0.075230084 0.11760885 -0.010027265 0.090202175 0.07752497 0.03050978 0.078369364 0.11610837
0.08556013 0.025608253 0.05281368 0.074749574 0.025265332 0.015140781 0.01815015 0.039902482
0.013263549 0.092276886 0.05789959 0.055931214 0.04191801 0.06638181 0.05026834 0.04411447
0.07127491 0.10218701 0.06993739 0.015344037 0.12248159 0.013902116 0.00672588 0.03559402
0.047867768 0.007828993 0.07448317 0.07923519 0.074506 0.05819169 0.036958214 0.08552683
0.04751924 0.05526246 0.16776815 0.017628357 0.034375343 0.05399146 0.024550784 0.08901717
0.043652598 0.09460429 0.091114745 0.09252993 0.08994365 -0.052093998 0.12787133 0.099253155
0.044377435 0.051153988 0.12827922 0.029395442 0.027688153 0.0076469546 0.06720518 0.038275674
0.08787623 0.06103421 0.07023956 0.0014538869 0.04452009 0.026597807 0.1493288 0.12764375
0.04141667 0.015831288 0.007780233 0.020274503 0.051215038 0.059294123 0.07469 0.0130841695
0.040110834 0.032722972 0.04695976 0.049320195 0.05735062 0.05173072 0.07416845 0.06973183
0.045897033 0.019056492 0.029766612 0.04738722 0.105200686 0.051338125 0.05666439 0.038339347
0.06819566 0.10054921 0.06352211 0.053158436 0.115086906 0.024427319 0.07325983 0.07536811

3.weight f4 [59, 256]
00000000: cf3c f3bd c4f0 87bd 4e11 43bd de98 b5bd
00000010: 4179 d8bc 20f0 61bd c166 a3bd 22ee 2ebe
00000020: afbd 0cbe 6003 f4bd 826b f9bd c1c1 cdbc
00000030: 7653 763c 9126 37bc ea8d e6bd c1f8 73bd
00000040: 3b81 d2bd 1ba0 a6bd 7bc7 b9bc d38b 43bd
00000050: 65ec 9bbd 16fc 78bd 2b7b ddbd 8bfe e0bd
00000060: 581b c1bd 636c 53bd aab6 87be 9978 31be
00000070: 44c8 dbbd 57c9 9ebc 4048 bcbd 536f 4dbc
00000080: 5f86 41bd 809b 59bd 94af e3bd 8cb9 45be
00000090: 0da4 9bbd 2217 b5bc 241b a6bb bb49 8ebd
000000a0: 5a20 88bd c27f f7bd 94dd a0bb 5cca b8bd
000000b0: b8df 14be ea7c cdbd cc3b a9bc c519 d4bd
000000c0: 1ff1 debd 58f0 f4bd f4c9 88bc 42d5 6bbd
000000d0: ee4f 93bc 8f78 07be 4492 8aba 8b98 81bd
000000e0: fbcd 91bc d223 5dbd b6bb aabd a2a2 43bd
000000f0: 81c9 0fbc 9dd3 7ebd 72c2 4cbd 756d 60bd
00000100: 6663 a5bd 9893 56bd 5abd debd 77cd 83bd
00000110: 3e1f 1dbd a0b5 9bbd 478a cfbd 632b c6bd
00000120: 669f 50bd 546d b3bd 1413 6ebc 7f45 bdbd
00000130: 4b7e 11bd 5870 01be b4d9 c0bd 61f2 a6bd
00000140: 8122 29be 39d4 46bc 3f70 4cbd 2255 2dbe
00000150: b716 ddbd 2ec1 0abd 7b40 ecbd 8412 78bd
00000160: e045 66bd c7c5 4bbd 5bf4 bebd b5aa f8bd
00000170: e200 7bbd 08f8 00be 3cf8 c0bd 619e bdbd
00000180: f8d8 a13c c767 65bd 2a25 57bd 642a 97bd
00000190: 8b6d 2fbd fe40 89bc 99b6 a8bd c263 94bd
000001a0: e77e bcbd 3100 8fbb 5648 e7bc 6d87 67bd
000001b0: f90a e2bd 19e5 afbc 417b 1fbd 04d7 a5bc
000001c0: c4bb e4bd 0076 a9bc 68fd 4cbd e075 2abd
000001d0: c27c b0bd 8fd9 51bd 9698 40be d33a e6bd
000001e0: 28c1 babd 9c15 44bd e328 81bd ab49 82bd
000001f0: 1d12 9abd 95fe 0abe cc77 47bd 143f 35bd
00000200: 870d d3bd c497 9abd 018d fabd c5db 7dbd
00000210: 7f9b 5ebd 39f4 b6bd 39a2 4ebd 802b d1bd
00000220: d153 68bd 94fc f1bc 7cf5 9cbd deb5 58bd
00000230: c936 dcbd 6cdc 8bbb eaa9 003d 3ec7 a5bd
00000240: 0601 20ba aa6a 45bc 0d5a 8abd 6458 c3bd
00000250: 19d5 dbbd a1c6 843c 408c 1dbe 165a ba3b
00000260: 079f c8bd a246 0ebe cd49 1fbe 6743 dcbd
00000270: 0dda cbbd 4dbb ccbd 442b f6bd bef0 46be
00000280: 2bf8 fbbc e365 2fbd 0862 c83c 2389 a0bd
00000290: 7827 a3bd 71da 0ebd bfba 00be 8906 20be
000002a0: f7eb c6bd 4790 84bd 384b 84be 656b 693a
000002b0: 55c1 02be bded b4bd 7407 56bd a499 abbd
000002c0: d7b0 5abd 7ad8 17be 3326 ffbc 1655 973a
000002d0: 506a 84bd 2ff7 8b3b d696 89bd 408a cebd
000002e0: f108 d5bc ca5d 73bd f707 a6bc c59c d7bd
000002f0: 28a6 b7bc ed8a 18bd 58d4 f7bd c64b 73bd
00000300: 1a76 c3bd 33fa b2bc 6def 3fbe 9ca8 f3bd
00000310: 3d37 f0bd 55c5 873b ebe6 97bd e682 42bd
00000320: 773c a4bd 372c c4bd f38a 06bb 412d d7bd
00000330: d959 9dbd 7590 5a3c a21f bfbd e148 19b9
00000340: 7aa0 a5bd 01b5 14bd b821 a1bd 005d 32bd
00000350: c78a a8bc 8bf6 cbbd 53c3 b7bd 0f5a 08be
00000360: 37aa f1bd 2db1 42bd 8364 9dbd e58f 1fbd
00000370: 22af c4bd 653f e5bd cf3b 72bd 28c0 4dbe
00000380: 0780 89bd 26b0 c9bd f8a4 32be 5e00 a3bd
00000390: b946 b7bd 94b9 aabd 1807 b5bd 85fc 97bd
000003a0: 7e42 cfbd 411b 8ebd af74 0abd 6dec 78bd
000003b0: 0a31 cebd 1706 a4bd 856b 86bd f9b4 a3bc
000003c0: dde6 0cbd 5f0f 6cbd c027 fabc f065 29bd
000003d0: 742b d0bd c95d 89bd df74 ecbc f5bf 413b
000003e0: 3709 97bd f1bf d6bd 4eea 67bd 31a8 99bd
000003f0: f419 20bd e58a 0bbe fcea 9abd ad7e a6bd
-0.11876833 -0.06637719 -0.047623925 -0.08867048 -0.026425006 -0.05516064 -0.07978583 -0.17083028
-0.13744234 -0.11914706 -0.121787086 -0.025116803 0.015034547 -0.011178629 -0.11257537 -0.059563402
-0.10278555 -0.081360064 -0.022678128 -0.04774077 -0.07613448 -0.060787283 -0.10814508 -0.1098605
-0.094290435 -0.051617038 -0.2650655 -0.1733116 -0.10731557 -0.019383116 -0.09193468 -0.012538749
-0.047247287 -0.053126812 -0.11117473 -0.19309062 -0.075996496 -0.022105757 -0.0050691534 -0.06947657
-0.066467956 -0.12084915 -0.0049092267 -0.09022972 -0.14538467 -0.10033591 -0.020658396 -0.10356478
-0.10885834 -0.119599044 -0.016697861 -0.057576425 -0.01798245 -0.13229583 -0.0010572155 -0.063279234
-0.017798414 -0.05398924 -0.08336584 -0.04776252 -0.00877607 -0.06221353 -0.049990125 -0.054791886
-0.08075599 -0.05238685 -0.1087596 -0.06435674 -0.038359873 -0.076030016 -0.10133796 -0.09676244
-0.050933264 -0.08761087 -0.014530916 -0.09241771 -0.035520833 -0.12640512 -0.094165236 -0.08151699
-0.16517068 -0.012135559 -0.049911734 -0.16927007 -0.10795348 -0.033875637 -0.11535736 -0.060564533
-0.05621898 -0.049749162 -0.09323951 -0.12141935 -0.06128014 -0.12594616 -0.09422347 -0.09258724
0.01975678 -0.056007173 -0.052525677 -0.07381132 -0.042829078 -0.016754624 -0.08237953 -0.0724559
-0.09203892 -0.0043640365 -0.028232735 -0.056525636 -0.11037249 -0.021471547 -0.038935903 -0.020244129
-0.11168626 -0.02068615 -0.050046355 -0.04161632 -0.08617546 -0.05123287 -0.18808207 -0.112416886
-0.09118873 -0.04787217 -0.06306627 -0.06361707 -0.07522986 -0.13573678 -0.04869823 -0.04424961
-0.103053145 -0.07548478 -0.122339256 -0.061977167 -0.05434751 -0.089333005 -0.050447676 -0.10213375
-0.05672056 -0.029539384 -0.0766401 -0.052907817 -0.10752637 -0.0042682197 0.031412043 -0.08094643
-0.0006103668 -0.0120493565 -0.06755457 -0.095383435 -0.107340045 0.016207995 -0.15385532 0.0056870086
-0.09795957 -0.13894132 -0.15555497 -0.107550435 -0.09953699 -0.09996662 -0.12019971 -0.19427773
-0.030757984 -0.042821776 0.024460807 -0.07838657 -0.079665124 -0.03487629 -0.12571238 -0.15627493
-0.097129755 -0.06472831 -0.25838637 0.00089042477 -0.12769063 -0.088344075 -0.0522532 -0.08378914
-0.053391304 -0.14828673 -0.031146144 0.0011545743 -0.0646559 0.00427141 -0.06718223 -0.10084963
-0.02600524 -0.059415616 -0.02026747 -0.10527948 -0.022418097 -0.037241865 -0.12101048 -0.059398435
-0.095440105 -0.02184782 -0.18743677 -0.11897394 -0.11729286 0.004143397 -0.07417091 -0.047488116
-0.08019345 -0.09578746 -0.0020529598 -0.105066784 -0.07683153 0.013340105 -0.09332205 -0.00014618367
-0.08087249 -0.03630543 -0.078677595 -0.043545723 -0.020573987 -0.09959134 -0.08972802 -0.13315605
-0.11800044 -0.04753225 -0.07685187 -0.038955588 -0.096037164 -0.11193732 -0.05913907 -0.20092833
-0.067138724 -0.09848051 -0.17445743 -0.079590544 -0.08949036 -0.083361775 -0.08839244 -0.07421211
-0.10120104 -0.06938792 -0.033802684 -0.06077235 -0.10067947 -0.08008974 -0.065634765 -0.019983755
-0.034399856 -0.057631847 -0.030536532 -0.04135698 -0.10164538 -0.06707341 -0.028864322 0.0029563878
-0.073748045 -0.10485829 -0.056619935 -0.07502783 -0.03908725 -0.13627203 -0.07564351 -0.0812963

3.bias f4 [59]
00000000: f150 aebb de24 96bd 4507 053c ce07 a8bd
00000010: c8d4 2f3c 044d 3abd 2b56 8bbd fa91 493c
00000020: a588 8ebd 0eb8 43bd 7b1b d8bc ebc2 6ebd
00000030: 882d 93bd 0452 dabc 7511 fc3c 1e92 b7bd
00000040: 0483 84bc 2212 b2bb f2cb 54bd 1b9a 78bc
00000050: dd20 73bd d07e 40bc 7c68 eb3c 638f b23c
00000060: 54f2 9cbc 8143 14bd 9502 a7bc 3277 19bd
00000070: a9b9 143c 813d 57bc 00de e73c 3ffa 5bbd
00000080: 9f07 95bd f122 33bb 0cf9 56bd 02dd a6bd
00000090: 5b20 aabb 7171 1abd 0485 a4bb 3d18 85bd
000000a0: e80f 9abb 275e bcbc d9b8 0dbb d513 20bd
000000b0: fba6 e439 d673 03bd 3f3a f53c a56c 0fbc
000000c0: ddd4 9bbc e437 3b3c 461b fe3c 85e8 33bd
000000d0: 20d1 fcbc 9792 6ebd b0ec e43c 0074 52bb
000000e0: cfc4 063c 08d8 a13c 11c7 eebb
-0.0053197076 -0.073312506 0.008119409 -0.082046136 0.010731883 -0.045483604 -0.068035446 0.01230287
-0.069596566 -0.04778295 -0.026380291 -0.058291357 -0.07186419 -0.026650436 0.030770043 -0.089634165
-0.016175754 -0.0054342905 -0.05195231 -0.01517346 -0.059357513 -0.011748984 0.028736345 0.021796888
-0.01915852 -0.03619719 -0.020386973 -0.03746719 0.009077468 -0.013137222 0.0283041 -0.05370545
-0.07276844 -0.002733406 -0.052483603 -0.08147623 -0.0051918454 -0.037705842 -0.0050207395 -0.06498764
-0.004701603 -0.022994114 -0.002162507 -0.039081413 0.0004361196 -0.03209289 0.029935 -0.00875393
-0.0190224 0.0114269 0.031018864 -0.04392292 -0.030861437 -0.058245268 0.027944893 -0.0032112598
0.008225634 0.019756332 -0.007286914
